…
e (3, 5)
Test Input shape (1, 3, 5)
Test Input [[[-0.703125  -0.6015625 -0.5       -0.3984375 -0.296875 ]
  [-0.203125  -0.1015625  0.         0.1015625  0.203125 ]
  [ 0.296875   0.3984375  0.5        0.6015625  0.703125 ]]]
Model: "model"
_________________________________________________________________
Layer (type)                 Output Shape              Param #   
=================================================================
input_1 (InputLayer)         [(None, 3, 5)]            0         
_________________________________________________________________
reshape (Reshape)            (None, 3, 5, 1)           0         
_________________________________________________________________
permute (Permute)            (None, 1, 3, 5)           0         
_________________________________________________________________
fused_conv2d (FusedConv2D)   (None, 1, 3, 2)           90        
_________________________________________________________________
fused_conv2d_1 (FusedConv2D) (None, 1, 3, 2)           36        
_________________________________________________________________
permute_1 (Permute)          (None, 3, 2, 1)           0         
_________________________________________________________________
flatten (Flatten)            (None, 6)                 0         
_________________________________________________________________
fused_dense (FusedDense)     (None, 5)                 35        
=================================================================
Total params: 161
Trainable params: 161
Non-trainable params: 0
_________________________________________________________________
Weight(8-bit)=
 []
(0,)
Bias(8-bit)=
 []
Weight(8-bit)=
 []
(0,)
Bias(8-bit)=
 []
Weight(8-bit)=
 []
(0,)
Bias(8-bit)=
 []
Weight(8-bit)=
 [[[[[-115. -113.]
    [-110. -107.]
    [-105. -102.]
    [-100.  -97.]
…
