(9, 7)
(9, 7)
Test Input shape (1, 9, 7)
Test Input [[[0.        … Model: "model"
_________________________________________________________________
Layer (type)                 Output Shape              Param #   
=================================================================
input_1 (InputLayer)         [(None, 9, 7)]            0         
_________________________________________________________________
reshape (Reshape)            (None, 9, 7)              0         
_________________________________________________________________
fused_conv1d (FusedConv1D)   (None, 9, 2)              14        
_________________________________________________________________
fused_conv1d_1 (FusedConv1D) (None, 9, 3)              6         
_________________________________________________________________
flatten (Flatten)            (None, 27)                0         
_________________________________________________________________
fused_dense (FusedDense)     (None, 3)                 84        
=================================================================
Total params: 104
Trainable params: 104
Non-trainable params: 0
_________________________________________________________________
Weight(8-bit)=
 []
Bias= []
Weight(8-bit)=
 []
Bias= []
Weight(8-bit)=
 [[[[-115.  -97.]
   [ -80.  -62.]
   [ -44.  -27.]
   [  -9.    9.]
   [  27.   44.]
   [  62.   80.]
   [  97.  115.]]]]
Bias= []
…
