(9, 7)
(9, 7)
Test Input shape (1, 9, 7)
Test Input [[[0.        … Model: "model"
_________________________________________________________________
Layer (type)                 Output Shape              Param #   
=================================================================
input_1 (InputLayer)         [(None, 9, 7)]            0         
_________________________________________________________________
fused_conv1d (FusedConv1D)   (None, 9, 6)              42        
_________________________________________________________________
reshape (Reshape)            (None, 3, 3, 6)           0         
_________________________________________________________________
fused_conv2d (FusedConv2D)   (None, 3, 3, 2)           108       
_________________________________________________________________
flatten (Flatten)            (None, 18)                0         
_________________________________________________________________
fused_dense (FusedDense)     (None, 3)                 54        
=================================================================
Total params: 204
Trainable params: 204
Non-trainable params: 0
_________________________________________________________________
Weight(8-bit)=
 []
Bias= []
Weight(8-bit)=
 [[[[-115. -111. -108. -104. -100.  -96.]
   [ -93.  -89.  -85.  -81.  -78.  -74.]
   [ -70.  -66.  -63.  -59.  -55.  -52.]
   [ -48.  -44.  -40.  -37.  -33.  -29.]
…
